model/SeedGNN-model.pth (torch, 7453 bytes, 17 tensors)

mlp.0.0.weight f4 [3, 1]
-0.51764494 -0.5932122 0.20001787
00000000: 6184 04bf c1dc 17bf 7cd1 4c3e

mlp.0.0.bias f4 [3]
-0.54181314 -0.50593513 0.486581
00000000: 44b4 0abf f784 01bf 2521 f93e

mlp.1.0.weight f4 [3, 4]
0.6999608 -0.6032659 0.010773878 0.1633019 -0.14613737 0.96569574 0.29769742 -0.114872195
0.7655719 -0.299717 -0.5403149 0.0515124
00000000: a230 333f a26f 1abf eb84 303c 9d38 273e
00000010: 09a5 15be d637 773f cc6b 983e 1d42 ebbd
00000020: 85fc 433f 8274 99be 1452 0abf abfe 523d

mlp.1.0.bias f4 [3]
0.29472592 1.1852463 -0.9900384
00000000: 51e6 963e 27b6 973f 2873 7dbf

mlp.2.0.weight f4 [3, 4]
-0.2433593 -0.5229581 -0.6178402 0.014214178 0.1895789 -0.18442562 0.71942705 0.62969995
0.043897275 -0.24601613 -0.096196756 0.1420826
00000000: 2e33 79be 95e0 05bf c62a 1ebf 95e2 683c
00000010: f920 423e 12da 3cbe 5f2c 383f 0434 213f
00000020: a1cd 333d a7eb 7bbe ce02 c5bd 1a7e 113e

mlp.2.0.bias f4 [3]
-1.3860571 -0.6998558 -1.3768455
00000000: 526a b1bf c029 33bf 793c b0bf

mlp.3.0.weight f4 [3, 4]
-0.28512272 0.018870281 -0.36404163 0.6990316 -0.6057311 -0.29521853 -0.1946696 0.31366473
-0.43124023 -0.88105255 -0.44171262 -0.054640267
00000000: 9bfb 91be d995 9a3c aa63 babe bcf3 323f
00000010: 3211 1bbf e226 97be 7857 47be aa98 a03e
00000020: 85cb dcbe a98c 61bf 2828 e2be 79ce 5fbd

mlp.3.0.bias f4 [3]
-0.0009077807 0.5356211 0.2371707
00000000: 22f8 6dba 771e 093f e0dc 723e

mlp.4.0.weight f4 [3, 4]
0.13724835 -0.48575047 -0.79614663 0.04269015 0.15886563 0.25958094 0.77067655 0.35678416
-0.08426986 0.73600924 0.5566199 -0.011202588
00000000: d58a 0c3e 49b4 f8be 44d0 4bbf dedb 2e3d
00000010: acad 223e cbe7 843e 0f4b 453f 6aac b63e
00000020: ad95 acbd 1a6b 3c3f a47e 0e3f 0f8b 37bc

mlp.4.0.bias f4 [3]
0.11437021 0.24662067 0.08673687
00000000: ee3a ea3d 218a 7c3e 1aa3 b13d

mlp.5.0.weight f4 [3, 4]
-0.38845158 0.27119493 -0.2392909 0.2640226 -0.03980112 0.024013579 -0.14678514 0.34208685
-0.33635342 0.2487979 -0.48947138 -0.23483592
00000000: 20e3 c6be 10da 8a3e ac08 75be f82d 873e
00000010: 8006 23bd 20b8 c43c d84e 16be 0226 af3e
00000020: 8436 acbe e0c4 7e3e fe9b fabe d478 70be

mlp.5.0.bias f4 [3]
-0.2854458 0.27587533 0.25264376
00000000: f425 92be 883f 8d3e 865a 813e

readout.1.0.weight f4 [1, 4]
-0.13582568 -0.12211763 -0.092322335 0.6285334
00000000: e315 0bbe cf18 fabd 7e13 bdbd 91e7 203f

readout.2.0.weight f4 [1, 4]
-0.14013366 0.45398468 0.12971172 1.7434057
00000000: 337f 0fbe ae70 e83e 26d3 043e eb27 df3f

readout.3.0.weight f4 [1, 4]
-0.44149047 0.031653114 -0.18808985 1.6233712
00000000: 0a0b e2be b2a6 013d a09a 40be a1ca cf3f

readout.4.0.weight f4 [1, 4]
-0.51626176 -0.013744371 0.24084231 1.6486235
00000000: bb29 04bf 1230 61bc 5e9f 763e 1806 d33f

readout.5.0.weight f4 [1, 4]
-0.18098249 -0.3281982 0.11648477 0.9413291
00000000: 7953 39be 9809 a8be 918f ee3d f2fa 703f
